Ai Model/model.pth (torch, 127540 bytes, 5 tensors)

gru.weight_ih_l0 f4 [300, 2]
0	0xbeeba34b	-0.4602302
1	0xbe58c56e	-0.21169063
2	0xbf2c66e6	-0.6734451
3	0xbea0888c	-0.31354177
4	0xbfa37f1f	-1.2773169
5	0xbf85bf74	-1.0449052
6	0xbf576774	-0.8414223
7	0xbedf2af7	-0.43587467
8	0xbe06f717	-0.13180195
9	0xbede5430	-0.43423605
10	0xbec3ff8e	-0.3828091
11	0xbf116374	-0.5679238
12	0x3d786c81	0.060650352
13	0xbe15bd07	-0.1462289
14	0xbebdafff	-0.37048337
15	0xbe6ab084	-0.22918898
16	0x3e141164	0.14459759
17	0xbe3aa85e	-0.1822829
18	0xbf960763	-1.1721004
19	0xbdc41dad	-0.09575973
20	0x3ecd2fe6	0.40075606
21	0xbed75037	-0.42053387
22	0xbff5efac	-1.9213767
23	0xbf365040	-0.712162
24	0xbe96593a	-0.2936495
25	0xbf1b2edb	-0.6061837
26	0x3da4d87c	0.080491036
27	0xbf026e95	-0.50949985
28	0xbe91d8f3	-0.28485832
29	0xbefa2fc4	-0.48864567
30	0x3ea484b8	0.32132506
31	0xbea2d0f5	-0.31800047
32	0xbf3396a9	-0.70151764
33	0xbf3cacf0	-0.7370138
34	0xbdd5f564	-0.10447195
35	0xbf03df1a	-0.515123
36	0x3d93a0ad	0.07208381
37	0xbf0b6ecc	-0.5446594
38	0xbed7cfaa	-0.42150623
39	0xbee2badb	-0.44283184
40	0xbebe2344	-0.3713628
41	0xbef68991	-0.4815183
42	0x3e25806a	0.16162267
43	0xbe3d0388	-0.18458378
44	0xbf166f32	-0.5876342
45	0xbe8ce90f	-0.2752156
46	0xbd867feb	-0.06567367
47	0xbf0f9139	-0.5608097
48	0xbf042ff5	-0.51635677
49	0xbea4b820	-0.32171726
50	0xbf53d278	-0.82743025
51	0xbe43a643	-0.19106393
52	0xbf09c724	-0.5381949
53	0xbee9c66a	-0.4565919
54	0xbe96849f	-0.29398057
55	0xbe1abd46	-0.15111265
56	0xbe04310b	-0.12909333
57	0xbe41e4df	-0.18934964
58	0xbe43ef87	-0.19134341
59	0xbf214f7f	-0.63011926
60	0xbf1a306f	-0.60230154
61	0xbca1a181	-0.019730331
62	0x3f31073d	0.6915167
63	0xbf06d065	-0.52661735
64	0xbdeefc74	-0.11669245
65	0xbea5a804	-0.32354748
66	0xbf2f3a5c	-0.68448424
67	0xbed09543	-0.40738878
68	0xbf2cefe0	-0.6755352
69	0xbef8cd95	-0.48594347
70	0xbef50a71	-0.4785953
71	0xbee33e29	-0.44383362
72	0x3eb0589b	0.344426
73	0xbed8f84c	-0.42376935
74	0xbe5d7979	-0.2162837
75	0xbdcbe576	-0.099558756
76	0xbef8734e	-0.4852547
77	0xbf0c2fef	-0.5476064
78	0xbecc885a	-0.39947778
79	0xbe95aa4c	-0.2923149
80	0x3e69596c	0.22788018
81	0xbbb84704	-0.0056237
82	0x3dccee04	0.100063354
83	0xbe96f673	-0.294849
84	0xbe21d3e0	-0.1580348
85	0xbeaac7ff	-0.3335571
86	0xbed01e6e	-0.40648216
87	0xbf0ace33	-0.54220885
88	0xbf8e45c6	-1.1115043
89	0xbef5c776	-0.4800374
90	0xbec5c379	-0.38625696
91	0xbea601a9	-0.32423142
92	0x3f2ef01d	0.68335134
93	0xbe9eb2d6	-0.30995816
94	0xbea94793	-0.3306242
95	0xbe5e8cbd	-0.21733375
96	0xbf4e2f55	-0.8054097
97	0xbf1a0979	-0.60170704
98	0xbf51b7af	-0.81920904
99	0xbe9cf9bb	-0.3065928
100	0xbfc918c9	-1.5710689
101	0xbed8c4e1	-0.42337707
102	0xbdfeafbf	-0.12435865
103	0xbe387f61	-0.18017341
104	0xbf9bb477	-1.2164448
105	0xbe7bd082	-0.24591258
106	0xbe62e9b0	-0.22159457
107	0xbe6085ca	-0.21926036
108	0xbed8fe3f	-0.42381474
109	0xbf07bdd2	-0.5302402
110	0xbe0f393a	-0.13986674
111	0xbf0095b0	-0.50228405
112	0x3dab4146	0.08362059
113	0xbeb1e63a	-0.3474596
114	0x3f8ad92c	1.0847526
115	0xbdf9ff08	-0.122068465
116	0xbf875de8	-1.0575533
117	0xbea63809	-0.32464626
118	0xbf69d7e1	-0.9134503
119	0xbf457266	-0.77127683
120	0xbea83399	-0.32851866
121	0xbe1d8043	-0.15380959
122	0xbedee665	-0.43535152
123	0xbd75a560	-0.059972167
124	0xbeb939c9	-0.361769
125	0xbf05b98f	-0.52236265
126	0xbf238241	-0.63870627
127	0xbf63c8cd	-0.8897827
128	0x3ecc398a	0.3988765
129	0xbec32666	-0.38115233
130	0x3f90fdfb	1.1327509
131	0x3c784a01	0.015154363
132	0xbea6a1cd	-0.3254532
133	0xbea476bc	-0.32121837
134	0x3f50255a	0.81306994
135	0xbec40bc7	-0.38290235
136	0xbd73c622	-0.059515126
137	0xbe8a12c1	-0.26967433
138	0x3f583092	0.8444911
139	0xbe9b7a64	-0.30366814
140	0xbe2bcbfb	-0.16777031
141	0xbdbd58ea	-0.09245475
142	0xbea77be6	-0.32711715
143	0xbf08a5f8	-0.5337825
144	0x3d5b5026	0.053543232
145	0xbeb0b3e3	-0.34512243
146	0x3cd1cf33	0.025611496
147	0xbe0c5728	-0.13705122
148	0xbe842c33	-0.2581497
149	0xbef1aa34	-0.47200167
150	0xbe729843	-0.23690896
151	0xbf171dfd	-0.59030133
152	0xbc2ee0df	-0.010673731
153	0xbec9e7c8	-0.39434648
154	0xbf261a64	-0.6488402
155	0xbf423eac	-0.7587688
156	0xbe92ba0b	-0.28657565
157	0xbe1d78ac	-0.15378064
158	0xbf56841e	-0.83795345
159	0xbf3efd5a	-0.74605334
160	0xbe6dd70f	-0.2322657
161	0xbe74d864	-0.23910671
162	0x3d3418b4	0.04396887
163	0xbe67cd72	-0.22636965
164	0xbe314247	-0.17310439
165	0xbeccede3	-0.40025243
166	0xbf811ae7	-1.0086335
167	0xbeddc861	-0.4331694
168	0xbebc97dd	-0.36834612
169	0xbf0da35b	-0.55327386
170	0xbeeeeaef	-0.46663615
171	0xbf0ab17b	-0.54177064
172	0xbef68a11	-0.4815221
173	0xbf26f177	-0.65212196
174	0xbe1b5af3	-0.15171413
175	0xbe51e729	-0.20498337
176	0xbe041507	-0.12898646
177	0xbf88cfcb	-1.0688413
178	0xbe47df8e	-0.19518873
179	0xbebb2dd5	-0.36558405
180	0xbedd6f49	-0.43248966
181	0xbf0c1d2f	-0.5473203
182	0xbf330ff0	-0.69946194
183	0xbef8e01c	-0.48608482
184	0xbf5974a5	-0.8494361
185	0xbf4e2aba	-0.80533946
186	0xbeff74d9	-0.49893835
187	0xbeb94e67	-0.3619263
188	0x3d437f90	0.047729075
189	0xbf2bfc1d	-0.6718157
190	0xbed71bca	-0.4201339
191	0xbf12009d	-0.57032186
192	0xbeff491d	-0.49860469
193	0xbe912537	-0.28348705
194	0xbfab8c81	-1.3402253
195	0xbf0fdb56	-0.56194055
196	0x3ea7df86	0.32787722
197	0xbe54427d	-0.20728488
198	0xbd506893	-0.05088098
199	0xbf38c80f	-0.72180265
200	0x3f388e2c	0.7209194
201	0x3cae24a9	0.021257715
202	0x3f2db254	0.6785023
203	0x3f21fb3b	0.6327397
204	0x3eea80d8	0.45801425
205	0x3e518b4e	0.20463297
206	0x3f1e6680	0.6187515
207	0x3e541928	0.20712721
208	0x3f8b9897	1.0905942
209	0xbeb09467	-0.34488222
210	0x3ea3f5a6	0.32023352
211	0x3f815049	1.0102626
212	0x3ea4c4b8	0.32181334
213	0xbe980ad1	-0.29695752
214	0x3fa2ac9c	1.2708926
215	0xbd3df68a	-0.046377696
216	0xbe9f9b55	-0.31173196
217	0x3f107bdf	0.5643901
218	0x3fed2b5d	1.8528858
219	0x3f24a7a0	0.64318275
220	0xbf1183ea	-0.5684191
221	0x3d2081cf	0.039186295
222	0x3f8f7913	1.1208824
223	0x3e9f0829	0.31060913
224	0x3f975f31	1.1825925
225	0x3ca9b64e	0.020716812
226	0x3f2dbbd7	0.67864746
227	0x3ee25591	0.44205907
228	0x3ef30d1b	0.47470936
229	0x3f25cdeb	0.6476733
230	0x3f2e92a0	0.6819248
231	0x3ebd5fc4	0.36987126
232	0x3edddc7a	0.43332273
233	0x3e3b1281	0.18268777
234	0x3f23ee38	0.6403537
235	0x3eb48148	0.35254884
236	0x3f8ad74d	1.0846955
237	0xbd1bc69e	-0.038031213
238	0x3ffd32a0	1.9781075
239	0x3fe66154	1.7998452
240	0x3fcdfe55	1.6093241
241	0x3ef4425b	0.47706875
242	0x3f147277	0.5798716
243	0x3e3e5a1f	0.18589066
244	0x3e4a1ecd	0.19738312
245	0x3ecdc1f3	0.40187034
246	0xbed39190	-0.41321993
247	0xbee78b86	-0.45223635
248	0xbebc23ae	-0.3674597
249	0xbe8c569f	-0.27409837
250	0x3f8c050c	1.093904
251	0x3f2d4129	0.6767755
252	0x3f07a3cf	0.5298433
253	0x3e2a0ac1	0.16605665
254	0xbf180801	-0.59387213
255	0xbb9c8884	-0.004777016

gru.weight_hh_l0 f4 [300, 100]
0	0x3f52cf73	0.8234779
1	0x3d34762b	0.044058006
2	0xbe3dedf9	-0.1854781
3	0xbd7c803c	-0.06164573
4	0xbee14cd7	-0.44003937
5	0x3dec2b08	0.11531645
6	0x3e9322da	0.28737527
7	0x3eb7f202	0.35926825
8	0x3ec1bddb	0.3784016
9	0x3ee54275	0.44777265
10	0x3d225913	0.03963573
11	0xbeb63ea9	-0.3559468
12	0xbf33eb61	-0.70281035
13	0x3e0f2960	0.13980627
14	0xbef2c59e	-0.47416395
15	0x3e23996d	0.15976496
16	0xbe20ddcc	-0.15709609
17	0xbe863f73	-0.26220283
18	0xbefafc62	-0.49020678
19	0xbe5e879a	-0.21731415
20	0x3f061af8	0.523849
21	0xbcacd3e9	-0.02109714
22	0xbe190345	-0.14942653
23	0xbed40bb7	-0.41415188
24	0x3ef4cb4e	0.4781136
25	0x3d534742	0.05158163
26	0x3da69aa3	0.08134963
27	0x3edc1f00	0.429924
28	0xbd9e35e7	-0.07725125
29	0xbe38e956	-0.1805776
30	0xbdec8f12	-0.11550726
31	0xbcca04e6	-0.024660539
32	0x3ee80ea0	0.45323658
33	0xbe2ed1ce	-0.17072222
34	0xbaa88cac	-0.0012859306
35	0x3c6d2b67	0.01447568
36	0xbecd2f5c	-0.40075195
37	0xbe492c17	-0.19645725
38	0xbef03a1a	-0.46919328
39	0x3d504c01	0.050853733
40	0xbe9b86eb	-0.30376372
41	0x3e93e578	0.28886008
42	0xbdf98bb3	-0.12184849
43	0x3da1b17e	0.07895182
44	0xbef94df5	-0.4869229
45	0xbe60d975	-0.21957953
46	0xba8ab782	-0.0010583254
47	0x3e22685c	0.15860122
48	0x3d557941	0.05211759
49	0xbe9e8452	-0.30960327
50	0x3e297d11	0.16551615
51	0xbe18c8d0	-0.14920354
52	0xbe4f95db	-0.20272009
53	0x3eb2b380	0.34902573
54	0xbe9bb8f5	-0.3041455
55	0x3ca658f1	0.020306082
56	0x3df465c7	0.11933475
57	0x3e581904	0.21103293
58	0x3dc999f4	0.09843817
59	0xbd7b0d74	-0.061292127
60	0xbd545bc5	-0.05184533
61	0xbe4bb397	-0.19892727
62	0x3d46e6da	0.04856
63	0xbf403e31	-0.75094897
64	0xbe1e22b1	-0.15442921
65	0x3ee17c5f	0.440402
66	0x3d0f8f07	0.03504851
67	0xbe375575	-0.17903693
68	0x3d873016	0.066009685
69	0x3ea02e76	0.31285447
70	0xbed73ba7	-0.420377
71	0xbe213894	-0.15744239
72	0xbbc6922d	-0.006059906
73	0xbd905fcb	-0.07049521
74	0xbec76096	-0.38940877
75	0xbea4ac76	-0.32162827
76	0xbec9a254	-0.3938166
77	0x3e9baac7	0.3040373
78	0x3d4a2805	0.04935457
79	0x3e93c348	0.28859925
80	0x3f032076	0.51221406
81	0xbdaae0e0	-0.08343673
82	0x3d0bcdc2	0.034131773
83	0x3f0ca74a	0.5494276
84	0x3e761726	0.24032268
85	0x3eff359f	0.49845597
86	0xbe47ea97	-0.19523083
87	0x3e94eeab	0.2908834
88	0x3e409886	0.18808183
89	0xbec3cf0d	-0.38243905
90	0xbe11f2b2	-0.14252737
91	0xbe3de5c1	-0.18544675
92	0x3e07d9e2	0.1326671
93	0xbd9fa517	-0.0779516
94	0x3eba99fd	0.3644561
95	0xbe8773e7	-0.26455614
96	0x3dc1748e	0.09446059
97	0x3f17b2da	0.5925728
98	0x3ef184f9	0.47171763
99	0x3f228a6e	0.63492477
100	0xbf0d53de	-0.55206096
101	0xbd99b568	-0.075053036
102	0xbdd0cf36	-0.10195772
103	0xbda6d0b2	-0.08145274
104	0xbf455249	-0.7707868
105	0x3a866944	0.001025476
106	0xbf337e4a	-0.70114577
107	0x3ebe6cc0	0.37192345
108	0x3dc20337	0.094732694
109	0xbe87b357	-0.26504013
110	0x3e870b67	0.26375887
111	0xbe180fc1	-0.1484976
112	0xbe58526b	-0.2112519
113	0x3e5e3229	0.21698822
114	0x3ed4d02a	0.41565067
115	0x3d5406cc	0.051764295
116	0xbdc476dc	-0.09592983
117	0xbe8d7eaf	-0.27635714
118	0xbd41cec6	-0.047316335
119	0x3e275a73	0.16343097
120	0xbce2e69b	-0.027697852
121	0x3e9c5387	0.30532476
122	0x3dc09809	0.094039984
123	0xbeb14620	-0.34623814
124	0x3d9c2eff	0.07626151
125	0xbe5bb6d7	-0.21456467
126	0x3e0e6bfd	0.13908382
127	0xbd8675d6	-0.06565444
128	0xbd863519	-0.06553096
129	0xbdd0db92	-0.1019813
130	0xbf0d5437	-0.55206627
131	0xbdfa0ca2	-0.12209441
132	0xbed6c2e9	-0.4194558
133	0x3cf90b4a	0.03040089
134	0xbe22a82e	-0.15884468
135	0x3e6e2f74	0.2326029
136	0xbd5c94c2	-0.053852804
137	0x3caf954e	0.021433499
138	0x3dbd646e	0.09247671
139	0x3da2171e	0.079145655
140	0x3f12b950	0.57314014
141	0xbb166342	-0.0022947346
142	0x3eb89153	0.36048374
143	0x3eca3594	0.39494002
144	0xbc5548b0	-0.013017818
145	0xbe65d194	-0.22443229
146	0x3e143b65	0.14475782
147	0xbeaf1645	-0.34196678
148	0xbe761227	-0.24030362
149	0x3e7aaf6d	0.24480982
150	0x3e34715a	0.17621365
151	0x3eddee66	0.43345946
152	0xbdb3f17b	-0.08786293
153	0x3d955c1f	0.07292961
154	0x3e3a4d69	0.18193592
155	0x3ea91a96	0.33028096
156	0xbd731040	-0.05934167
157	0xbd8ab8a6	-0.067735
158	0xbec9a4cd	-0.39383546
159	0xbe429a7e	-0.19004247
160	0x3dc3a329	0.09552605
161	0xbdebdecf	-0.11517107
162	0xbec3c2aa	-0.38234454
163	0xbe2636c8	-0.16231835
164	0x3e0e0f5a	0.13873044
165	0xbc8b17f6	-0.016979199
166	0x3e133fd7	0.14379822
167	0xbf0bc30b	-0.54594487
168	0x3daf038a	0.08545597
169	0x3ede1c4a	0.43380958
170	0x3eae0393	0.33987102
171	0xbc570c5b	-0.013125504
172	0xbe2712f2	-0.16315821
173	0x3e169892	0.14706638
174	0xbe7aeff1	-0.24505593
175	0xbe9813ae	-0.29702514
176	0x3e60c77f	0.21951102
177	0x3e5e3a37	0.21701895
178	0xbbf1f5b0	-0.0073840246
179	0x3e8d876e	0.27642387
180	0x3e9d70f7	0.30750248
181	0xbe5083fe	-0.20362851
182	0xbec16717	-0.37773964
183	0xbee5e6ef	-0.4490275
184	0xbe41b86f	-0.18918012
185	0xbe867a24	-0.2626506
186	0xbeb07521	-0.34464362
187	0xbd3bdd9d	-0.045865644
188	0x3d2102ae	0.039309196
189	0x3ec6206e	0.38696617
190	0x3dc27105	0.09494213
191	0xbe876782	-0.26446158
192	0x3df5b00b	0.11996468
193	0xbe6f4449	-0.23365892
194	0x3ef7151b	0.4825829
195	0xbd6cf928	-0.0578548
196	0xbe4f566c	-0.20247811
197	0x3ef78d9d	0.4835023
198	0xbf0d3f6e	-0.5517491
199	0x3cb33cc7	0.021879567
200	0xbefb4674	-0.4907719
201	0xbe6d1f81	-0.23156549
202	0xbe795b35	-0.24351199
203	0xbd56e5a8	-0.05246511
204	0xbf2027c5	-0.62560683
205	0xbdf4b377	-0.11948293
206	0x3e1f156f	0.1553552
207	0x3edc76f6	0.4305951
208	0x3f03cf38	0.51488066
209	0x3ea4eb42	0.32210737
210	0x3b84dc99	0.0040546176
211	0xbef3c674	-0.47612345
212	0xbea140d9	-0.31494787
213	0x3e0344dd	0.12819238
214	0xbdfbcfd6	-0.12295501
215	0x3e0ac1bb	0.13550465
216	0xbe1c1b5d	-0.15244813
217	0xbeeda791	-0.46416906
218	0xbed19ccd	-0.40939942
219	0x3e16bc61	0.14720298
220	0x3f3ffe9b	0.7499787
221	0x3e4292c4	0.19001299
222	0xbdbcdf04	-0.09222224
223	0xbec7cfe3	-0.39025792
224	0x3ec44646	0.38334864
225	0xbdc5016a	-0.0961941
226	0x3e23dfc6	0.16003332
227	0x3ebadb80	0.3649559
228	0xbe98f15a	-0.29871637
229	0xbeae9777	-0.34099934
230	0x3deb3b05	0.114858665
231	0xbd47ac5b	-0.048748355
232	0x3d9b824c	0.075932115
233	0xbe9f25bc	-0.31083477
234	0xbf0458ce	-0.51698005
235	0x3db6161d	0.088909365
236	0xbe80804b	-0.2509788
237	0xbdb157a7	-0.086592965
238	0xbe654d02	-0.22392657
239	0x3e4b14f5	0.19832213
240	0x3b911c87	0.0044284496
241	0x3d22b069	0.03971902
242	0xbce1ea41	-0.027577521
243	0x3ec529b9	0.38508394
244	0xbde65be2	-0.11247994
245	0xbea7f831	-0.32806543
246	0x3e903203	0.28163156
247	0x3e13d43b	0.14436428
248	0xbe978319	-0.29592207
249	0xbf25ebcf	-0.6481294
250	0xbeaa5095	-0.33264604
251	0x3f2534fd	0.6453398
252	0xbed7b1f1	-0.42127946
253	0x3e87f691	0.26555303
254	0x3e3fdb7a	0.18736067
255	0x3ebe89d4	0.3721453

gru.bias_ih_l0 f4 [300]
0	0xbeb79a0b	-0.35859713
1	0xbf1184e4	-0.568434
2	0xbf71fba2	-0.94524586
3	0xbf807737	-1.0036381
4	0xbee2a844	-0.44269
5	0xbede25c7	-0.43388197
6	0xbdd55cf3	-0.10418119
7	0xbf2807fc	-0.65637183
8	0xbddd2fb8	-0.10800117
9	0xbeac1bb0	-0.33614874
10	0xbe8b7f93	-0.2724577
11	0xbf19b2c5	-0.60038406
12	0xbf4df376	-0.80449617
13	0xbe990cd5	-0.29892603
14	0xbe39cc55	-0.18144353
15	0xbe6865a5	-0.22695024
16	0xbedd65e1	-0.4324179
17	0xbf3aca27	-0.7296471
18	0xbf3a58cf	-0.7279176
19	0xbf6dbbd2	-0.92864716
20	0xbf37fd53	-0.7187092
21	0xbe8dcd14	-0.27695525
22	0xbe7b10c9	-0.24518122
23	0xbee23925	-0.44184223
24	0xbe60f6f4	-0.21969205
25	0xbeb987a5	-0.362363
26	0xbedccffe	-0.43127435
27	0xbea5d633	-0.32389984
28	0xbe5ee553	-0.21767168
29	0xbefdf9df	-0.496047
30	0xbe86197a	-0.26191312
31	0xbe70e51e	-0.23524901
32	0xbe0b5fb1	-0.13610722
33	0xbeac3125	-0.33631244
34	0xbf1b8cc1	-0.6076165
35	0xbf0bddbf	-0.5463523
36	0xbebe9c39	-0.37228563
37	0xbeedaf3b	-0.46422753
38	0xbf6dd855	-0.9290822
39	0xbf10e3d9	-0.5659767
40	0xbdc6b43c	-0.09702346
41	0xbee42586	-0.44559878
42	0xbe704a09	-0.23465742
43	0xbe9d3b6d	-0.307094
44	0xbe26c00d	-0.16284199
45	0xbeb08174	-0.34473765
46	0xbe30aaae	-0.17252609
47	0xbea20eb8	-0.31651855
48	0xbef7c6e5	-0.48393932
49	0xbe053688	-0.13009083
50	0xbf0476be	-0.51743686
51	0xbeaebc34	-0.34127963
52	0xbe911cf3	-0.283424
53	0xbea9d95b	-0.33173642
54	0xbf0cf195	-0.55056125
55	0xbf112219	-0.56692654
56	0xbeb5336e	-0.353908
57	0xbdf6b509	-0.120462485
58	0xbdfb22a6	-0.12262468
59	0xbf4edaa7	-0.80802387
60	0xbf339fba	-0.701656
61	0xbe5d20e7	-0.21594582
62	0xbeed57f1	-0.46356156
63	0xbf391c92	-0.7230922
64	0xbe888882	-0.26666647
65	0xbed3b451	-0.41348508
66	0xbefb37b0	-0.49065924
67	0xbe1fa5dd	-0.15590616
68	0xbf2b6756	-0.66954553
69	0xbeebdf95	-0.46069017
70	0xbe358ca5	-0.17729433
71	0xbefdcf7d	-0.49572363
72	0xbed25f22	-0.41088206
73	0xbe533c87	-0.20628558
74	0xbed3807d	-0.41308966
75	0xbeaaf3c6	-0.3338911
76	0xbdc0259e	-0.09382175
77	0xbf83b2a4	-1.0288892
78	0xbeb6fe42	-0.35740858
79	0xbf2c98e2	-0.6742078
80	0xbec62ffb	-0.3870848
81	0xbee558fa	-0.44794446
82	0xbf48699c	-0.7828615
83	0xbf328c3f	-0.6974525
84	0xbe8a3311	-0.26992086
85	0xbea1d8f4	-0.31610835
86	0xbe793059	-0.2433485
87	0xbe3d4635	-0.18483813
88	0xbebcdd22	-0.3688746
89	0xbe850153	-0.25977573
90	0xbf1e33ec	-0.61797976
91	0xbe6f168f	-0.23348449
92	0xbed401ae	-0.41407531
93	0xbeb0618f	-0.3444943
94	0xbf1e4989	-0.61830956
95	0xbea968e5	-0.3308784
96	0xbf1ddec6	-0.6166805
97	0xbf349682	-0.70542157
98	0xbe913f19	-0.28368452
99	0xbf209d6e	-0.6274022
100	0x3f1c9621	0.6116658
101	0x3f87c420	1.0606728
102	0x3eeb8ffd	0.46008292
103	0x3f18c597	0.596765
104	0x3c7eb9d5	0.0155472355
105	0x3f80cbe8	1.0062227
106	0xbdee26b3	-0.11628475
107	0x3ecfbf41	0.40575603
108	0x3e4c1c54	0.19932681
109	0x3eac7935	0.33686224
110	0x3e20ffaf	0.15722536
111	0x3f02c019	0.5107437
112	0x3ea01210	0.3126378
113	0x3f1e8915	0.6192792
114	0x3eb9a7d6	0.3626086
115	0x3f337460	0.7009945
116	0x3f305a13	0.6888744
117	0x3f210881	0.629036
118	0x3e49b0ef	0.19696401
119	0x40318268	2.7735844
120	0x3e4a8806	0.19778451
121	0x3ef8de3d	0.48607054
122	0x3edf62ae	0.43629974
123	0x3e0f961c	0.14022106
124	0x3eb89f53	0.36059055
125	0x3f534ac4	0.8253596
126	0x3f161b3d	0.5863531
127	0x3eb03798	0.34417415
128	0x3f5ec225	0.8701499
129	0x3f0675dc	0.5252359
130	0x3f9504e7	1.1642121
131	0xbe038865	-0.12844999
132	0x3d4a602f	0.049408134
133	0x3f84b44f	1.0367526
134	0x3f84f99d	1.0388676
135	0x3f9d2f67	1.2280091
136	0x3dc4d918	0.0961172
137	0x3ec5c956	0.3863017
138	0x3db90077	0.09033292
139	0x3f576009	0.84130913
140	0xbdb0a494	-0.08625141
141	0x3e2b8fca	0.1675407
142	0xbd8abab1	-0.0677389
143	0x3ee37ae4	0.44429696
144	0x3f795257	0.97391266
145	0x3f540f32	0.82835686
146	0x3e0fa058	0.1402601
147	0x3f5cf08c	0.86304545
148	0x3ec0c5fd	0.37651053
149	0x3ec6cc8c	0.38827932
150	0x3f8a7b4d	1.0818878
151	0x3f5f6a35	0.87271434
152	0x3f64c2c9	0.8935972
153	0x3efc4332	0.49270016
154	0x3f4727c1	0.77795035
155	0x3fc815e6	1.5631683
156	0x3ed64932	0.4185272
157	0x3f0b70ae	0.5446881
158	0xbdaefba2	-0.08544089
159	0x3f1c7738	0.61119413
160	0x3f805081	1.0024568
161	0x3f53f012	0.82788193
162	0x3f370753	0.7149555
163	0x3e3b6f61	0.18304206
164	0x3e75ac2f	0.23991464
165	0x3ed7cde2	0.42149264
166	0x3f6879e4	0.9081099
167	0x3ee35d54	0.4440714
168	0x3fa7f734	1.3122315
169	0x3efe4459	0.4966152
170	0x3f164e3a	0.58713114
171	0x3f1d6da9	0.61495453
172	0x3ece15df	0.4025106
173	0x3f0baa81	0.54557043
174	0x3ede71e5	0.4344627
175	0x3defefd7	0.11715668
176	0x3e2c02ca	0.16797939
177	0x3f63c2f4	0.8896935
178	0x3f795b29	0.97404724
179	0x3f596167	0.8491425
180	0x3e8404b7	0.25784847
181	0x3ef4e4a0	0.47830677
182	0x4014b51d	2.3235543
183	0x3edc7f9b	0.43066105
184	0x3e37a398	0.179335
185	0x3a758508	0.00093658315
186	0x3f4db4a1	0.8035374
187	0x3e375927	0.17905103
188	0x3ea6f416	0.32608098
189	0x3ec114b9	0.37711123
190	0x3f567132	0.8376647
191	0x3e80d4a9	0.25162247
192	0x3f12176f	0.57067007
193	0x3f7f507d	0.9973219
194	0x3dfed829	0.12443573
195	0x3e97826b	0.2959169
196	0x403eb1db	2.9796054
197	0x3db31a21	0.08745218
198	0x3dd7194d	0.105028726
199	0x3e924816	0.28570622
200	0x3db18b33	0.08669128
201	0x3d684814	0.056709364
202	0xbdc8a6c7	-0.09797435
203	0xbde62b12	-0.11238684
204	0x3d91823a	0.07104917
205	0x3b48d6d9	0.0030645637
206	0xbc73e363	-0.014885756
207	0xbd6f73ee	-0.05846017
208	0x3d729e7f	0.059233185
209	0x3d148b38	0.03626558
210	0xbd2e90a8	-0.042618424
211	0x3bd47cb9	0.0064845947
212	0x3b0bf433	0.002135527
213	0x3c75c0cd	0.014999581
214	0xbda23cd9	-0.07921762
215	0xbd6be2e3	-0.057589423
216	0xbdad7e83	-0.08471396
217	0xbd97a8fc	-0.07405278
218	0xbc47708f	-0.012172832
219	0xbaa25b5a	-0.0012386844
220	0x3ce7fea9	0.028319674
221	0x3d6d9167	0.057999995
222	0xbd80dafc	-0.06291768
223	0x3db4d63f	0.08829927
224	0xbdfa2e2c	-0.12215838
225	0xbcc7220b	-0.024308225
226	0x3d80c9bb	0.06288477
227	0xbe077298	-0.13227308
228	0x3d9e51f6	0.077304766
229	0x3d3fa79e	0.04679071
230	0x3d587040	0.052841425
231	0xbbcb5e5b	-0.0062063164
232	0x3e0414cb	0.12898557
233	0xbba9264d	-0.0051620365
234	0x3d0a6c75	0.03379484
235	0x3cd9152c	0.026499353
236	0xbd693c8c	-0.056942508
237	0x3d05c996	0.03266295
238	0xbc34e993	-0.011042017
239	0x3dcae420	0.09906793
240	0x3c8398b4	0.016064025
241	0x3c4c49b4	0.012468744
242	0xbdf44152	-0.11926521
243	0xbd28d8ef	-0.04122251
244	0xbc21deb5	-0.009879758
245	0xbca5c077	-0.020233376
246	0x3dfe47f5	0.124160685
247	0xbcea1d41	-0.028578402
248	0x3d87f487	0.06638437
249	0xbd72586c	-0.059166357
250	0xb9e76e7a	-0.00044142065
251	0x3c92012a	0.01782282
252	0x3d543dda	0.0518168
253	0xbdc11e2b	-0.09429582
254	0xbcc52f88	-0.024070516
255	0x3bef1b87	0.0072969827

gru.bias_hh_l0 f4 [300]
0	0xbe80e8ed	-0.25177708
1	0xbf15f5f3	-0.58578414
2	0xbf5dc4ad	-0.8662823
3	0xbf64ff6a	-0.8945223
4	0xbeda3cd4	-0.42624533
5	0xbef45cf5	-0.4772717
6	0xbe68da9f	-0.22739647
7	0xbf076d57	-0.52901214
8	0xbe2e9393	-0.17048483
9	0xbe816981	-0.25275806
10	0xbeaf6a81	-0.34260944
11	0xbef523bf	-0.47878835
12	0xbf40e30a	-0.75346434
13	0xbe8cd20f	-0.27504012
14	0xbe44302d	-0.19159003
15	0xbdeabf5c	-0.1146228
16	0xbef70a3e	-0.48250002
17	0xbf3a18bb	-0.72693986
18	0xbf151366	-0.58232725
19	0xbf5ef6de	-0.8709544
20	0xbf44070f	-0.7657327
21	0xbee4e43e	-0.44705385
22	0xbebe3877	-0.37152454
23	0xbe933707	-0.2875292
24	0xbe9b6d60	-0.30356884
25	0xbe691689	-0.22762503
26	0xbe9fc75c	-0.31206787
27	0xbeb55a98	-0.3542068
28	0xbe8dcd73	-0.27695808
29	0xbf06c262	-0.52640355
30	0xbecefbe9	-0.40426567
31	0xbecbf5d7	-0.39835998
32	0xbe2781d7	-0.16358124
33	0xbed5dba1	-0.41769126
34	0xbf13d501	-0.57746893
35	0xbf2a0e3f	-0.6642799
36	0xbf049b0c	-0.5179908
37	0xbe914f8b	-0.28381
38	0xbf54e9f9	-0.83169514
39	0xbf12bc3e	-0.57318485
40	0xbc77db9f	-0.015128045
41	0xbeaf9318	-0.3429191
42	0xbe3871a7	-0.18012105
43	0xbeb040ba	-0.34424382
44	0xbe69d895	-0.22836526
45	0xbec763d6	-0.38943356
46	0xbe5a803e	-0.21337983
47	0xbed26b78	-0.41097617
48	0xbeaf8542	-0.34281355
49	0xbe6785b0	-0.22609591
50	0xbf19f1bd	-0.6013449
51	0xbe264aa2	-0.16239408
52	0xbe978f41	-0.29601482
53	0xbeadb00b	-0.33923373
54	0xbef0c523	-0.47025403
55	0xbf1e8625	-0.6192344
56	0xbe95418b	-0.29151568
57	0xbc554e56	-0.013019165
58	0xbe59f8d9	-0.21286334
59	0xbf40fe57	-0.7538809
60	0xbf1956f0	-0.5989828
61	0xbe510af2	-0.20414332
62	0xbef8ec01	-0.48617557
63	0xbf1d3af4	-0.6141808
64	0xbe755d91	-0.23961474
65	0xbebc3dec	-0.36765993
66	0xbea1b24e	-0.31581348
67	0xbe0b52ee	-0.13605854
68	0xbf339e0e	-0.7016305
69	0xbecfa00e	-0.405518
70	0xbe798f0b	-0.24370973
71	0xbefaf49f	-0.49014756
72	0xbed9a2d6	-0.42507046
73	0xbe5def3d	-0.21673293
74	0xbeb87bf3	-0.36032066
75	0xbea4bfcc	-0.3217758
76	0xbb939571	-0.004503899
77	0xbf8be4a5	-1.0929152
78	0xbefcdcbb	-0.49387154
79	0xbf3cdb80	-0.7377243
80	0xbed48ed8	-0.4151523
81	0xbeb5ab78	-0.35482383
82	0xbf6c98ec	-0.9242084
83	0xbf0dde17	-0.5541701
84	0xbe9d6e85	-0.30748382
85	0xbe936a95	-0.28792253
86	0xbd99807b	-0.07495209
87	0xbe2ef5c2	-0.17085937
88	0xbecfecc6	-0.4061033
89	0xbe9a3aab	-0.30122885
90	0xbf15d666	-0.5853027
91	0xbe8e6e9a	-0.27818757
92	0xbe9cb93b	-0.3061007
93	0xbf00dc56	-0.50336206
94	0xbefe2ef2	-0.4964519
95	0xbea26057	-0.31714126
96	0xbf38eecc	-0.72239375
97	0xbf236b85	-0.63835937
98	0xbe8c07a8	-0.2734959
99	0xbf1e6bb0	-0.6188307
100	0x3f370902	0.7149812
101	0x3f808349	1.0040065
102	0x3efb2554	0.49051917
103	0x3f05520f	0.52078336
104	0x3e3e056b	0.18556754
105	0x3f84f25e	1.0386465
106	0xbe176b06	-0.1478692
107	0x3e977202	0.2957917
108	0x3e504a34	0.20340806
109	0x3ede2297	0.43385765
110	0x3deb8f91	0.115019925
111	0x3f0278f4	0.5096581
112	0x3ed63eba	0.41844732
113	0x3f3b2cbc	0.73115134
114	0x3ef2a31a	0.47390062
115	0x3f3a7c0a	0.7284552
116	0x3f03856d	0.51375467
117	0x3f202178	0.6255107
118	0x3dcffe94	0.10155979
119	0x4031a58b	2.775729
120	0x3e6f80d5	0.2338899
121	0x3eeffad8	0.46871066
122	0x3f1159e1	0.5677777
123	0x3e4c27a3	0.19936995
124	0x3ebb1443	0.36538896
125	0x3f5e2c31	0.8678618
126	0x3f1ba931	0.6080504
127	0x3e5f971b	0.21834986
128	0x3f648b8d	0.8927544
129	0x3f2348a7	0.63782734
130	0x3f9ede0d	1.2411515
131	0xbdb7a633	-0.08967247
132	0x3d96da96	0.07365911
133	0x3f801b3c	1.0008311
134	0x3f8efecd	1.1171509
135	0x3fa71047	1.3051842
136	0x3dc0a94b	0.0940729
137	0x3ee8a196	0.4543578
138	0x3ce1c5bc	0.027560107
139	0x3f4ca45c	0.7993829
140	0xbd51a037	-0.051178183
141	0x3e4257eb	0.1897885
142	0xbd022d52	-0.031781502
143	0x3ed367a6	0.41290015
144	0x3f5bd4c9	0.8587156
145	0x3f5b5122	0.85670674
146	0x3e5cf777	0.21578775
147	0x3f58423d	0.8447607
148	0x3e9df3fd	0.3085021
149	0x3eb24ae3	0.3482276
150	0x3f86a0b9	1.0517799
151	0x3f447ed7	0.7675604
152	0x3f813a6d	1.0095955
153	0x3ec068fe	0.37580103
154	0x3f61eb63	0.88249797
155	0x3fca6c4c	1.58143
156	0x3ed27e32	0.41111904
157	0x3f1d3170	0.6140356
158	0xbd6c8468	-0.05774346
159	0x3f13b41a	0.5769669
160	0x3f65b43b	0.89728135
161	0x3f3b6b37	0.7321047
162	0x3f329b9c	0.6976869
163	0x3e189492	0.14900425
164	0x3e9bf26e	0.30458397
165	0x3ecfef93	0.40612468
166	0x3f668e75	0.9006112
167	0x3ebc2f68	0.36754918
168	0x3f9dc348	1.232522
169	0x3ec97ac2	0.3935147
170	0x3f07feed	0.5312336
171	0x3f30658a	0.68904936
172	0x3e990eea	0.2989419
173	0x3eea7cfb	0.45798478
174	0x3eecbf1e	0.4623956
175	0x3dc1ddc6	0.09466128
176	0x3e861859	0.2619045
177	0x3f5f7802	0.8729249
178	0x3f75fe39	0.9609104
179	0x3f5d388b	0.864144
180	0x3ed750ed	0.4205393
181	0x3f07f855	0.531133
182	0x4014f888	2.3276691
183	0x3eef2eb0	0.46715307
184	0x3e69ce49	0.22832598
185	0x3d9a03f8	0.07520288
186	0x3f369eb9	0.7133594
187	0x3e20d7a0	0.15707254
188	0x3e82c47c	0.2554053
189	0x3ebe9bdf	0.37228295
190	0x3f5c36d8	0.86021185
191	0x3e8caf90	0.27477694
192	0x3f0ed935	0.5580018
193	0x3f80ccb4	1.006247
194	0x3de11273	0.10989847
195	0x3e21a7c2	0.15786651
196	0x403d8a5e	2.9615703
197	0x3d919834	0.071091086
198	0x3ca53878	0.020168528
199	0x3e44bb56	0.19212088
200	0xbdbbc88c	-0.09169111
201	0xbc33aa0a	-0.010965833
202	0xbd4e503e	-0.050369494
203	0x3c4d3fbc	0.0125274025
204	0x3d34d24f	0.04414588
205	0x3c8fe3f1	0.017564746
206	0x3d5ae65e	0.05344235
207	0x3da2a387	0.079413466
208	0x3dbe18f1	0.09282101
209	0x3ce8761c	0.028376631
210	0xbda88818	-0.08229083
211	0xbc6b034e	-0.01434405
212	0x3aceaf85	0.0015768862
213	0xbd2e4a1e	-0.042551152
214	0x3dc061c6	0.09393649
215	0x3c37f185	0.011227016
216	0xbdf0493a	-0.11732717
217	0x3ba2d2f2	0.0049689943
218	0x3ceb0300	0.028687954
219	0x3c672133	0.014107036
220	0xbd18d385	-0.037311096
221	0xbd46594a	-0.048424996
222	0xbc8ad1a5	-0.01694567
223	0x3dcf3734	0.10117951
224	0xbd8f9483	-0.07010748
225	0xbc4da7cb	-0.012552212
226	0x3dd77466	0.10520248
227	0xbd141462	-0.03615225
228	0xbd9641d7	-0.07336777
229	0x3d2a4f96	0.041579805
230	0xbcdeb2f0	-0.027184933
231	0xbd644e3e	-0.05573868
232	0x3ca556a5	0.020182917
233	0xbd4efaa4	-0.050532
234	0x3bd1600e	0.0063896244
235	0xbd263288	-0.040575534
236	0x3c8c61e3	0.01713652
237	0xbdaeb689	-0.085309096
238	0xbc413598	-0.011792563
239	0xbcbb17fb	-0.022838583
240	0xbcfb758a	-0.030695695
241	0xbd305283	-0.04304744
242	0xbd3b32d7	-0.04570278
243	0xbd953130	-0.072847724
244	0xbd3e15d2	-0.04640753
245	0xbd9f4c92	-0.077782765
246	0x3df2a257	0.1184737
247	0xbd2245a5	-0.0396172
248	0x3d99386d	0.074814655
249	0x3ca61990	0.020275861
250	0x3b98a137	0.00465789
251	0x3da72fa5	0.08163384
252	0xbc071906	-0.008245712
253	0x3d32d926	0.04366412
254	0x3c2a8c4b	0.010409425
255	0x3d1400b4	0.036133483

fc.weight f4 [1, 100]
0	0x3cc00b00	0.023442745
1	0xbcfd2255	-0.03090016
2	0x3e32345f	0.1740279
3	0x3dd53274	0.10410014
4	0x3d04e091	0.032440726
5	0x3b6e6bf3	0.003638026
6	0xbd95135e	-0.072790846
7	0xbd0033f0	-0.03129953
8	0x3d0da291	0.034578864
9	0xbd6e1dbe	-0.058133833
10	0xbd1e95c4	-0.038717046
11	0x3d5e68bc	0.0542991
12	0x3cbfe50b	0.023424646
13	0xbd168439	-0.03674719
14	0x3b7537b4	0.0037417235
15	0x3c38fe52	0.011291103
16	0x3e10f33e	0.1415529
17	0x3d8db737	0.06919711
18	0x3d8d837b	0.069098435
19	0xbba5baef	-0.0050576846
20	0xbd128278	-0.035768956
21	0x3b1fa9be	0.002436265
22	0xbc13b932	-0.009016322
23	0x3c84d896	0.016216557
24	0xbcf0b685	-0.029383907
25	0x3cf12995	0.029438773
26	0xbe22adfb	-0.15886681
27	0xbcffcb8e	-0.031224992
28	0x3c172ee3	0.009227487
29	0x3c994e1f	0.018714009
30	0xbd95fa46	-0.073231265
31	0xbcc073ba	-0.023492683
32	0xbd0d3475	-0.034473855
33	0xbd1f2fb4	-0.038863853
34	0xbc2910ac	-0.010318916
35	0xbb13a919	-0.002253121
36	0x3c0fa20a	0.0087666605
37	0xbc041fad	-0.008064193
38	0x3cc418b8	0.023937568
39	0xbdaa1029	-0.083038636
40	0x3d89de82	0.06731893
41	0xbb0addb0	-0.0021189265
42	0x3c6a4517	0.014298699
43	0xbc1ed6e8	-0.009694792
44	0x3cf2ca3c	0.029637448
45	0x3ca035de	0.019556936
46	0x3c22f7f1	0.009946809
47	0xbca04edc	-0.019568853
48	0x3c005749	0.00783331
49	0xbd3174f5	-0.04332443
50	0xbe21dd45	-0.15807064
51	0x3ad96a10	0.0016587395
52	0x3c48233f	0.012215435
53	0xbd517b54	-0.051143005
54	0xbb7fc359	-0.0039026348
55	0xbca4d149	-0.020119326
56	0xbc9a7569	-0.018854814
57	0x3d8bf031	0.06832922
58	0x3c926223	0.01786906
59	0x3df38c47	0.1189199
60	0x3cc95aad	0.02457937
61	0xbbb781c0	-0.005600184
62	0x3ca89aca	0.020581622
63	0x3d803dcc	0.06261787
64	0xbd01eed0	-0.03172189
65	0xbcfd8177	-0.030945523
66	0xbc0150a8	-0.007892765
67	0x3d80110b	0.06253251
68	0xbc93a0dc	-0.01802104
69	0xbcb8fb9d	-0.022580916
70	0xbc8041e0	-0.015656412
71	0xbd1e1680	-0.038595676
72	0xbb98fc77	-0.004668768
73	0xbd01fd32	-0.031735606
74	0x3cd37273	0.02581141
75	0x3c6efca5	0.014586602
76	0xbcc6e2fd	-0.024278158
77	0xbd2669cb	-0.040628236
78	0x3c6d15f9	0.014470571
79	0xbd52a0f9	-0.051423047
80	0xbd685156	-0.056718193
81	0x3c9011f2	0.017586682
82	0x3bf3b2c2	0.007437081
83	0xbbb18efc	-0.0054186564
84	0x3d60a087	0.05484059
85	0x3bc914d5	0.0061365166
86	0x3e0ff532	0.14058378
87	0xbbdb9e95	-0.006702254
88	0x3d0255df	0.031820174
89	0x3d442c6a	0.04789392
90	0x3cff6895	0.031177798
91	0x3c90099f	0.017582713
92	0xbe4157eb	-0.18881194
93	0x3bea4275	0.0071490356
94	0xbcf10266	-0.029420089
95	0x3cf672d3	0.03008405
96	0x3b182dfb	0.0023220766
97	0xbd550629	-0.052007828
98	0x3bd40b7f	0.006471097
99	0xbd50bd90	-0.05096203
